preTrained_models/ddqn/Town07/carla_dueling_dqn_target.pth (torch, 273031 bytes, 9 tensors)

Linear1.0.weight f4 [256, 100]
00000000: 4be6 16bb b765 8c3d 13f6 ddbd 3b49 8abd
00000010: 1374 61bc 6501 fb3c c1d4 d2bb bb99 933d
00000020: 9485 74bc 6f3e 9c3c 55ae 0abd 2ccf f2bc
00000030: bb60 a1bd 05eb 80bd d66c 2ebc d944 fdbc
00000040: 6169 333c 0618 483d 9230 16bd 6fd4 7bbd
00000050: 42f4 553d e075 e03d 7755 e8bc d433 c63d
00000060: 9d4f f93a 4e21 84bb 55ae d13d 87d8 03be
00000070: 8eef 61bd 178d 4cbc 8986 2cbd 412e b33d
00000080: 7f33 a2bd c505 71bd 83f2 34bd 1f63 69bd
00000090: b86c f9bc 1a93 873d 3972 273d 6679 953d
000000a0: 8b38 a63c 8889 a4bc 0936 6e3a 9d5a cabd
000000b0: 5ede e2bd 314e 57bd 584b 293d a334 b33d
000000c0: f45a cebc 170d 163c efe0 833d 60ed d33d
000000d0: 4ea8 843c a517 073d fa89 b33d d617 9ebd
000000e0: cfa0 c23b a029 c9bd 8dca b4bd 50fc 7dbd
000000f0: 954e f23c 7064 483c c28b 3bbd bc7d 203d
00000100: ef64 953d 1d43 13bd 9838 b63b 528c a43c
00000110: 1af9 673d bad2 f03d cbd5 a6bd b8ee c2bc
00000120: 91fe 353d d3de 973d 8b99 be3d e22e d93d
00000130: 3ece f43c 0461 96bd 3945 82ba 2eab 99bd
00000140: b8c5 bbbd 6ede a53d 59cd c63d b18f ebbd
00000150: bcaa 173d 95d4 1abd 757e 94bc 77a8 aabc
00000160: 3078 033d 1fed 9dbd 0f2b 213d 064e 073d
00000170: b495 973d 3e35 d43c 5810 00be ec55 60bd
00000180: e4ba ea3c 9d9c b6b9 8c5b b6bd cc3b 16bd
00000190: 4198 a33d 1751 7c3d 91f7 3cbd f4f0 2fbd
000001a0: d84a dfbd 25fb 7b3c 534a b7bd 6279 bdbd
000001b0: d0f3 9e3c 999a 2bbb 6f26 6dbd 68af 423d
000001c0: a362 fbbc 932b c43d 400f 853d ea42 d4bd
000001d0: c538 05bd de9b dfbb f5a3 eb3b b9fe 673c
000001e0: b8b0 633d d642 293c 02bb 8abd b90e 8b3d
000001f0: d303 b9bd 7b1c a7bd 50ef 2fbc ab1a 98bd
00000200: c565 58bd 3c27 85bd 3ec2 debc f065 ff3c
00000210: 530d 74bd 62ef b4bc cc16 8a3d 2ad0 adbc
00000220: 2ec4 8dbc 9230 2ebc a3ca 5e3b 676f 553d
00000230: 6d9c bb3d 6fe7 573d a7f9 973d b0b6 81bb
00000240: bcb4 b0bd bb39 70bd f1b1 743d 3f6f 56ba
00000250: 6e4f f8bc db20 6ebd 16ce edbd 27ac 4dbd
00000260: a305 21bd 4005 943d 2099 883d 7523 01be
00000270: 64aa ff3c 8d5a cfbd 2661 acbb a815 61bd
00000280: 9ca9 10bd fe66 983b d3c0 90bd 4b8d 99bd
00000290: 3b5f 0fbc 83c9 a73a 2610 32bd 7e27 bb3c
000002a0: 8457 d6bd 651c 4d3b c0ab 9e3d d75c 2dbd
000002b0: b5b3 cb3d 714c 2b3c 6a29 90bd f7a4 7d3d
000002c0: 0831 33bc b2eb 57bd 9603 c63d 09ac a6bd
000002d0: 7d33 cd3c 54c3 01bd 659f c03d 0946 ed3c
000002e0: 43dd 673d 25af 6b3c ccb1 b4bc 03d0 5c3b
000002f0: e1ab c8bd b833 213d 9860 bf3d 5fe6 363d
00000300: 9c8b c0bd 779b 83bc 4885 abbd a3a5 17bd
00000310: 0aa3 8dbd 4ac4 be3c 1dec 51bd 2caf 323c
00000320: a3e4 3dbd 2aa1 843d fc80 00be 86d5 02be
00000330: 58f6 1ebc 7362 053e 10cd aabd f3cb e23c
00000340: 14ba d73d bd85 1dbd 23ca 24bd 7fbf 8bbd
00000350: 49f5 633d a0b1 75bd 3764 283d b6a1 1fbd
00000360: 0747 fdbd c1f7 ccbd 4478 0a3e 3d9c bbbd
00000370: 89ee 273d 03ab 2e3d ba5b e8bc 3f88 803d
00000380: 7ebb e0bd b087 84bc 6f4b c3bc 5324 66bd
00000390: 253c bebd 0802 223d 9696 19bd 5077 993d
000003a0: a433 7b3d 8e1f 173d 919e e63d ca3f 3f3b
000003b0: 8547 bc3d 2d3f ffbd 81a1 a7bd e6f8 a13d
000003c0: d812 5c3b 3b84 063e 1b36 11bc e15b 8abd
000003d0: 9cf1 1cbb 697c 10be 6ead 473c 3391 f4bc
000003e0: 54ab 683d 3647 a93c 8c2e e9bd 335b 963d
000003f0: 45f8 133a f237 a13b 4019 ecba 2428 babd
-0.002302545 0.06855338 -0.108379506 -0.06752249 -0.013760584 0.030640313 -0.0064340536 0.07207056
-0.014924426 0.01907274 -0.033857662 -0.029639803 -0.07879778 -0.062948264 -0.010646066 -0.030916618
0.010950417 0.048851036 -0.036667414 -0.06148189 0.052234896 0.10959983 -0.028361065 0.09677854
0.0019020919 -0.0040322905 0.10238329 -0.12875567 -0.055160098 -0.01248481 -0.04212049 0.087490566
-0.07919978 -0.058843393 -0.04417659 -0.056979295 -0.030447349 0.06619854 0.040880416 0.072985455
0.020290634 -0.020085111 0.00090870314 -0.09880564 -0.110775694 -0.052564804 0.04133162 0.08750274
-0.025189854 0.009158394 0.06439387 0.1034801 0.016193535 0.032981534 0.08766551 -0.0771939
0.00593958 -0.098223925 -0.08827696 -0.062008202 0.029578486 0.012230977 -0.04578758 0.03918241
0.07294642 -0.035952676 0.0055609457 0.020086441 0.056634046 0.11758943 -0.081462465 -0.02379547
0.044432227 0.07415547 0.0930663 0.10604645 0.0298835 -0.07342723 -0.0009938843 -0.07503353
-0.09168571 0.08099066 0.09707136 -0.11502016 0.03702806 -0.03780039 -0.018126706 -0.020832283
0.03209704 -0.07711243 0.039347704 0.033033393 0.074016005 0.025904294 -0.12506235 -0.05476944
0.02865357 -0.0003483043 -0.0890418 -0.03667812 0.079880245 0.06160077 -0.046134535 -0.0429544
-0.10902947 0.015379702 -0.08949723 -0.092516676 0.019403368 -0.0026184677 -0.05789798 0.04753056
-0.030686682 0.095786236 0.06497049 -0.10364325 -0.032524843 -0.0068240007 0.007191176 0.014159852
0.055588454 0.010330876 -0.0677395 0.067899175 -0.090339325 -0.08159729 -0.010738209 -0.074269615
-0.05283143 -0.06501624 -0.027192231 0.031176537 -0.05958302 -0.022086803 0.067426294 -0.021217424
-0.01730546 -0.010631697 0.0033995293 0.052108195 0.09160695 0.052710947 0.07420664 -0.0039585456
-0.08628222 -0.058648806 0.05974001 -0.0008180029 -0.030311313 -0.058136802 -0.116115734 -0.050213005
-0.039312016 0.07227564 0.06669831 -0.12611182 0.031209178 -0.10124693 -0.0052606044 -0.054952294
-0.035318002 0.0046509495 -0.07068028 -0.074976526 -0.008750732 0.0012801144 -0.04347243 0.02284598
-0.10465911 0.0031297442 0.077476025 -0.042324867 0.09946386 0.010455237 -0.07039149 0.0619249
-0.010936983 -0.05271501 0.09668653 -0.08138282 0.025048966 -0.03168042 0.09405402 0.02896406
0.056607496 0.014385019 -0.022057436 0.003369332 -0.09798408 0.039355963 0.09344596 0.044653293
-0.094016284 -0.016065342 -0.08375031 -0.037023198 -0.06915863 0.023286957 -0.051250566 0.010906022
-0.046360623 0.06476052 -0.12549204 -0.12776765 -0.009702288 0.13025837 -0.08339894 0.027685141
0.105335385 -0.03845762 -0.040231835 -0.06823634 0.055653844 -0.05998385 0.041111197 -0.03897258
-0.12367063 -0.10008193 0.1352244 -0.091606595 0.04099897 0.04264356 -0.028364051 0.06275987
-0.10973261 -0.016177982 -0.02383968 -0.056186985 -0.092888154 0.03955272 -0.037497126 0.0749346
0.061328545 0.036895327 0.11260713 0.0029182308 0.09193329 -0.12463222 -0.08185101 0.07908802
0.0033580568 0.1313638 -0.008862997 -0.06755806 -0.0023947721 -0.14109959 0.012187345 -0.029854393
0.056804016 0.020663839 -0.11385831 0.073416136 0.00056446 0.0049199993 -0.0018012896 -0.090896875

Linear1.0.bias f4 [256]
00000000: b5f5 dd3c 4e22 f7bb 7421 7c3d 0273 013d
00000010: fc5a 01bd f27a 8dbc 296e 86bc 868b b43d
00000020: ec58 70bd 532f 2d3e 0f37 41bd 76f1 fb3c
00000030: 85ac 603d f7be 95bd 39fb a93d d5c5 0f3e
00000040: 0191 c33d bdc9 b1bd 4cbd ee3c a7b6 c53d
00000050: ac38 ec3c f393 873d 1fda 22bd db56 383e
00000060: f2b9 573d 0cd4 a5bc f79b 233e 08cc d73c
00000070: 6d4e 3bbc a7ef 0e3e b8f8 833c fcb3 6fbd
00000080: 4e8d 873d 24a1 eb3d 3544 25bd f5a9 8abc
00000090: a455 eb3d eb51 78bd 3e7e b63d 1350 203d
000000a0: 0b04 493d 9232 82bd d87b a83d 4cf6 a23d
000000b0: 3000 6c3d ed6a 203e 2557 c93d 4b84 ebbc
000000c0: c1ba 89bc 62c8 05bd 8cf7 b93d c5af a93d
000000d0: 79f6 59bd 6659 e13d 4a6b 1cbd 1135 b8bd
000000e0: 279c 793d 6352 db3d bba4 3d3e c4b3 d23c
000000f0: bbf9 523c 8d50 85bc c680 9fbd e17b ea3c
00000100: 9c38 3bbd bbb5 f43d 65e8 973d 8a42 94bd
00000110: 6af6 0a3e 24b7 313e 5621 c23d 7298 f53c
00000120: e7cb 9fbc a48e ba3d 811e b13d 6abd d13c
00000130: 54d3 ab3d 4641 84bd de0b 843d b6d4 dd3d
00000140: 75f9 083e 1f0f 8b3d 6674 0e3d 9d84 8b3d
00000150: f876 fc3d 02a7 9d3b 6738 b2bd b1f6 8d3d
00000160: e043 d73d f6b2 bc3d fc9f 10bc 228a 0b3d
00000170: 127f d33d cda8 143d 092c 0cbd 2bf7 86bd
00000180: 43b8 193e d1d0 8a3d 39ac 283d fc5a c03c
00000190: 4194 4fba 992b 76bd 6036 d6bc 529d 443e
000001a0: 7e8f 7dbd f8fa 08bd 4449 9db9 6429 50bd
000001b0: 68a1 073e 39e5 b4bb 33ef 03bd 85eb f5bc
000001c0: 5733 c53d 3165 c0bc 3a72 82bd b8dc 87bc
000001d0: bdd6 243b cad8 c33d b99b e03c 4385 2f3d
000001e0: 6689 df3c aca2 923d cb71 5f3d 30c3 4ab9
000001f0: 7e18 36bc b256 b43d 5ef4 8b3d 6b10 583d
00000200: 4626 6e3d 48e5 aa3d 79c0 d23d 6aaf b63d
00000210: 42bd 02bd 61bd 9e3d 0ef7 9ebd 2244 9ebd
00000220: c65b 6bbd 63a4 e53d db60 a63d 6355 b13d
00000230: 57f3 c43d d285 de3d 1cbc b5bd 8c6f 173d
00000240: fe11 adbc a139 213e 1d74 403d 9c88 f2bd
00000250: b270 b53d 41a5 6e3e dab9 d13d 06ae 233c
00000260: da35 dd3c 43a6 87bc 10b6 e73c 69d4 82bc
00000270: ec6d b63d 53a5 913b e555 87bd a300 583c
00000280: 48b7 25bc fd99 aa3c ddc5 e93d 2534 863d
00000290: 0372 10bc 250b 223d 94b1 ad3d 1482 4d3d
000002a0: 4ba0 783d 7132 bf3d d87e b6bb 22a1 a1bd
000002b0: ec6f 85bd 6b6e a73d dba8 873b 8518 013e
000002c0: 97ae 5a3d d4af 863d 9c13 963d 3f1a 0b3e
000002d0: 8382 86bd 7b89 d93c cceb 90bb b4b4 ab3c
000002e0: 4128 76bc 870a 86bd 88d1 053e 389d 3bbc
000002f0: 3bc4 73bc 1544 46bd 3444 813c 4648 793d
00000300: 01b2 ec3c 6fbd f33c 2a20 303e 6b79 45bc
00000310: fcfc fc3b 1c71 1f3c 8a0f ca3c c03f 9c3d
00000320: 97a8 b23d fc6d e3bd 4a66 8c3d b6ab 603d
00000330: 6764 28bd 6b98 af3d 16e4 383e 0c15 c7bd
00000340: c7e1 143e 2ec0 b63d ac99 833d 4e8c e23d
00000350: bf16 82bd 6f6f 413d cbab 4a3d 6d63 8c3c
00000360: cf59 263c 00f9 c23a 60b3 3c3e 8515 783d
00000370: a144 cf3d 89c3 3cbd 926e a03d 7bf8 5b3d
00000380: c981 bd3d 9957 cabd 0cc3 173e 1675 443d
00000390: ea89 27bc a1aa 0f3e 1468 943d 9dbf 1c3d
000003a0: a4e6 d23c 6aff 813d 9950 7fbd def6 5ebd
000003b0: 0f09 b5bd b4aa e03d 9469 983d 2f7b 5dbd
000003c0: 0c67 ee3d 3f12 773d 403d 543d 9e40 89bd
000003d0: 534a a93d bd31 f33c 27f4 5a3d 7320 d93a
000003e0: 0fc7 67bc 5ece d53d 531e 1c3d 629d 1a3d
000003f0: e455 193d 22f3 8dbd a166 8dbc dc59 023c
0.027094701 -0.0075419312 0.06155534 0.03160382 -0.03158091 -0.017270539 -0.01640995 0.088156745
-0.058678553 0.16912584 -0.04717165 0.030754786 0.054852027 -0.07311814 0.0829987 0.1404031
0.09549142 -0.08681057 0.029142998 0.09653979 0.028835617 0.06620016 -0.039758798 0.18001883
0.052667566 -0.020242713 0.15977465 0.026342407 -0.011432272 0.13958608 0.01610981 -0.058521256
0.066187486 0.115053445 -0.04034825 -0.016926745 0.11490944 -0.060624998 0.089107975 0.039138865
0.04907612 -0.06357302 0.08226746 0.07957134 0.057617366 0.15665789 0.098310746 -0.028749606
-0.016812684 -0.032661803 0.09080419 0.082854785 -0.05321357 0.110033795 -0.038188256 -0.089944966
0.060939934 0.107090734 0.18519871 0.025720485 0.012876923 -0.016273761 -0.077882335 0.028623523
-0.045708284 0.11948725 0.074173726 -0.07239254 0.13570562 0.17355019 0.094790146 0.029979918
-0.019506408 0.09109238 0.08648396 0.025603015 0.08389917 -0.064577624 0.06447576 0.10831587
0.1337641 0.067899935 0.034778975 0.06812403 0.12327379 0.0048111686 -0.08702164 0.06931818
0.10510993 0.092138216 -0.008827206 0.03406728 0.10326971 0.036293793 -0.034221683 -0.06590112
0.15011697 0.0677811 0.04117987 0.023480885 -0.0007918515 -0.06010017 -0.026148975 0.19200638
-0.061904423 -0.033442467 -0.0002999996 -0.050820723 0.13245165 -0.0055204895 -0.03221054 -0.030019531
0.09628933 -0.023485752 -0.06369443 -0.01658474 0.0025152408 0.095628336 0.027418004 0.042851698
0.027287196 0.071599334 0.05455188 -0.00019336934 -0.011114238 0.08805598 0.06833719 0.052750032
0.05814197 0.08344513 0.102906175 0.08920176 -0.03191877 0.07750965 -0.07761966 -0.07727839
-0.05746057 0.11212995 0.081239425 0.08658864 0.09616726 0.10865368 -0.0887377 0.036971614
-0.021126743 0.1574464 0.046985734 -0.118424624 0.088593856 0.23305227 0.102405265 0.009990221
0.027003217 -0.016558772 0.028285056 -0.015970426 0.08907685 0.004444757 -0.0660818 0.013183746
-0.010114498 0.02082538 0.114146926 0.065529145 -0.008816245 0.03956141 0.08481136 0.05017288
0.060699742 0.09335793 -0.00556932 -0.07892062 -0.06515488 0.081753574 0.004140002 0.1260701
0.053389158 0.06576505 0.07327959 0.13584231 -0.06567862 0.026554814 -0.0044226404 0.02096019
-0.015024246 -0.06544977 0.13068211 -0.011451058 -0.014878328 -0.04840477 0.015779592 0.06085994
0.028893473 0.029753415 0.1719977 -0.012052874 0.007720588 0.009731557 0.024665613 0.07629347
0.08723562 -0.11104962 0.068554476 0.054851256 -0.041111376 0.08573993 0.18055758 -0.09720811
0.14539252 0.08923374 0.06425795 0.11061917 -0.06351995 0.047225412 0.04948024 0.017137254
0.010153248 0.0014875233 0.18427801 0.060567398 0.10120512 -0.046084914 0.078335896 0.053703766
0.0925327 -0.09879989 0.14820498 0.047963224 -0.010225752 0.14029934 0.07246414 0.038268674
0.025744744 0.063475445 -0.062332723 -0.05443465 -0.088396184 0.10970059 0.074420124 -0.054072555
0.116407484 0.060320135 0.051816225 -0.06701778 0.08266129 0.029686803 0.053455498 0.0016565457
-0.01414658 0.10439752 0.038114857 0.03774775 0.037435427 -0.069311395 -0.017260851 0.007955994

Linear1.2.weight f4 [128, 256]
00000000: fff0 1e3d 234f 57bc 7180 69bd e8b9 1f3d
00000010: 5072 febc c4ef 083d bb0d 88bd 502c ef3c
00000020: 5eed 563c b86a 3abd fa71 5f3c d0ea af3b
00000030: 00c1 40bb 303e 213c 0358 d6bc f0b1 d8bc
00000040: 8cb2 f5bc 80ec 6b3d c090 fbbc 97ac 19bd
00000050: 4042 ce3b 700d 143d 64b7 353d c4f8 053d
00000060: 70a2 11bd a803 b0bb 86e1 493d 09a8 d73c
00000070: 4c19 e0bc c0ea 5abc 9c46 353d 37a5 4f3d
00000080: 2c4e 453d 5fe7 5d3c d717 f53c e67d 0a3d
00000090: 78a4 ed3c b46e b2bc 9ca1 cb3c 1017 febb
000000a0: fc99 173d 0603 1a3d b2c2 163d 423e 6fbd
000000b0: 173f 603d 6d30 79bd cbd7 de3a 6ee4 ecbc
000000c0: 5d65 81bc f060 5d3d 8689 22bd 89ce 76bb
000000d0: d0bd 293d 3c1b 383d 34b2 373c 76e6 283d
000000e0: 184c 023d d42e d43c 3016 45bd 1027 843c
000000f0: 74e4 61bd f4a0 4c3d 306a 363c d9bb 16bd
00000100: 53b1 b13c c661 333c 7a62 f2bc 7058 f6bb
00000110: 0e07 543d 4274 1fbd 8dea c8bc 758b a6bc
00000120: 729b 34bd 474f 383d 8a6b 35bd 0e3e a33c
00000130: 7dd2 44bc 221b 1abd c056 173d 52e7 3bbd
00000140: b790 93bc 2412 373d c6f3 273d e7a0 5c3d
00000150: 6bbd e03c d5f0 fb3c b758 50bd fdc6 a7bc
00000160: d048 33bc 87b1 9bbc fee5 26bb 367b e63b
00000170: b924 a8bc 012b 233c 1074 693c 90bd 40bc
00000180: c004 c13c 5c58 3dbd a28d d5bc 089b 3abc
00000190: 5b02 fcbb 14e1 13bd d1ee 19bc c02e 0e3d
000001a0: 8e49 303d a6ca 923c b6a4 4bbd 94c6 663d
000001b0: 2ff8 78bd 9502 513c ab98 823d c45b b4bc
000001c0: a090 60bb 0053 66bc 13fb 7ebd c277 703d
000001d0: 6461 c63c c1d3 6e3c 7cd9 b2bc 1bc0 3e3d
000001e0: c469 bdbc 40bd 783c dc92 61bd e9d5 eabc
000001f0: a0bc 363b d0b1 e0ba 3391 033b 5c6f df3c
00000200: c27c 76bd a8b6 a73c 5e92 a23c 0258 cc3c
00000210: e7e3 043d efaf 2a3d 617e 2b3d 73d4 df3c
00000220: d819 e7bc af54 173d 5213 40bd 1542 3a3c
00000230: eabe 1f3c 5d47 153d ab06 6a3d f4ce 3d3d
00000240: d458 93bc f50a 40bd c042 80bd 3397 5d3d
00000250: 347b 71bd 3647 59bd 95bf 82bb 9536 59bb
00000260: 285b 2cbc e1e6 41bd 57e4 583d 0f53 023d
00000270: 58c4 bc3c f8e6 4cbc ec6d 56bd 643a afbc
00000280: f8f1 5e3d a0e6 1c3c e20c 4a3d b341 d63c
00000290: e974 5e3d ff6e 223d c08b 093d a044 163b
000002a0: 0b70 963b c136 7bbd b2db 623d 769c 57bd
000002b0: 78dd 48bd ee67 003c fdfe 3a3c a987 173d
000002c0: d678 643d a23e 7bbd 0a60 44bd 60ea 5dbd
000002d0: afd9 343d 2eb7 09bd 48df 00bd 2d62 ccbc
000002e0: ecb9 0bbc 6021 953c e1f4 1abd 24b2 a43c
000002f0: 6629 393d a8f2 64bc 00c3 65ba 1eb0 963c
00000300: 8b26 dbbc 20a9 a6bc a742 7dbd c98e 21bb
00000310: 8eb4 3dbd 891b a2bb d8e3 7bbd 6888 40bd
00000320: 0fc6 643d ee15 58bd c4e3 203d 31b3 72bd
00000330: bad2 54bd 150b 3abd c81e 4fbd df91 d6bc
00000340: c714 1dbc 244c f5bc 9adc 57bd d269 2abc
00000350: 95b3 8cbc 0d66 6ebd 1683 cdbb d703 0a3d
00000360: bc39 69bd f1bb 9e3c 8dd3 8dbd 491f 4e3c
00000370: 4186 2bbd e135 8bba 0f6e 5ebd e0ee 353d
00000380: d4f9 933a 1c9c 3dbb 8abc 1d3b 2175 81bd
00000390: f8b2 593d 1486 5a3d 2c80 b13c e03e 61bd
000003a0: 7567 a13c f7b1 05bd 53af b23c fac0 75bd
000003b0: 6e36 06bd 83a0 2ebd a4a7 4ebd 023a 053c
000003c0: 5855 733c 489e 643c 90ce 8e3b 9ea7 f7bb
000003d0: 9366 083d c813 513d 1d3a 333d 4043 4b3d
000003e0: ff0c 49bd 4c3e dd3c 7656 603c a754 af3c
000003f0: f003 f5bc b016 5ebd a28f 01bd 4ca7 5abd
0.03880405 -0.013141426 -0.057007257 0.038995653 -0.031060368 0.033431783 -0.06643244 0.029195935
0.013118116 -0.04551193 0.013638014 0.005368568 -0.0029411912 0.009841487 -0.026165014 -0.026452035
-0.029992364 0.05759859 -0.03070867 -0.03751811 0.0062945187 0.036145627 0.044364348 0.032707945
-0.035555303 -0.0053715296 0.04928734 0.026325243 -0.027355812 -0.013361633 0.04425679 0.05069467
0.048170254 0.013543933 0.029918594 0.033811472 0.029009089 -0.021781303 0.024857335 -0.007754214
0.037012085 0.03760054 0.03680677 -0.058408983 0.054747667 -0.060837198 0.0017001567 -0.028917518
-0.015795404 0.054047525 -0.039681934 -0.0037659726 0.041440785 0.044947848 0.0112119205 0.04123541
0.03181085 0.025901236 -0.048116863 0.016131908 -0.05514951 0.049958184 0.0111337155 -0.03680024
0.021691 0.010948604 -0.029587973 -0.007517867 0.05176454 -0.03892923 -0.024525905 -0.02033017
-0.044093557 0.04499748 -0.04429201 0.01992705 -0.012013075 -0.037623532 0.036947966 -0.0458749
-0.018013341 0.044695035 0.041003965 0.053864386 0.027434072 0.030754486 -0.050865855 -0.020480627
-0.010942653 -0.01900555 -0.0025466676 0.007033731 -0.020525323 0.009958983 0.014248863 -0.011763945
0.023561835 -0.046226844 -0.026068512 -0.011389501 -0.0076907105 -0.036103323 -0.009395317 0.034712553
0.043038897 0.017918896 -0.049717627 0.056341723 -0.06078356 0.012756963 0.06376775 -0.022016414
-0.003426589 -0.014057875 -0.06225116 0.05870796 0.024216361 0.014576853 -0.02183222 0.046569925
-0.023121722 0.0151818395 -0.055071697 -0.028666453 0.0027883425 -0.0017142836 0.002007556 0.02727478
-0.060177572 0.02047284 0.019845184 0.02494431 0.032443907 0.04167169 0.04186857 0.027322983
-0.028210565 0.036945995 -0.046893425 0.011368294 0.009750107 0.03644501 0.057135265 0.046339944
-0.017986692 -0.04688545 -0.062627316 0.054099273 -0.058955386 -0.053046428 -0.0039901235 -0.0033144106
-0.01051978 -0.047339324 0.052952137 0.031817492 0.023042843 -0.012506239 -0.052350923 -0.021390148
0.054429978 0.00957647 0.049328692 0.026154375 0.054310713 0.039656635 0.03358054 0.0022929087
0.0045909933 -0.061331514 0.0553853 -0.052639447 -0.049039334 0.007837279 0.011413333 0.03699461
0.0557793 -0.06133903 -0.047943152 -0.054178596 0.04415291 -0.03362196 -0.031462938 -0.024949158
-0.008528214 0.018204391 -0.03783119 0.020104475 0.045205496 -0.013973869 -0.0008764714 0.018394526
-0.026751777 -0.020344317 -0.061831143 -0.0024651757 -0.04631477 -0.00494713 -0.061496586 -0.047005087
0.055852946 -0.05275529 0.039279714 -0.05925292 -0.051958777 -0.045420725 -0.050566465 -0.026192604
-0.009587473 -0.029943533 -0.052700616 -0.010401206 -0.017175475 -0.058202792 -0.00627173 0.03369507
-0.056939825 0.019376727 -0.06925116 0.012580701 -0.04187608 -0.0010620916 -0.05430418 0.044417262
0.0011289665 -0.002893216 0.0024068677 -0.06321169 0.053149194 0.053350523 0.021667562 -0.054991603
0.019702652 -0.032640424 0.021812117 -0.05999849 -0.032766752 -0.042633545 -0.050452843 0.008131506
0.0148518905 0.013953753 0.0043581203 -0.0075578233 0.033300947 0.051044255 0.043756593 0.04962468
-0.04908466 0.027007245 0.013692489 0.02140267 -0.029909104 -0.054220855 -0.03163112 -0.053382203

Linear1.2.bias f4 [128]
00000000: da52 41bc 409c 693d b8bd 433d 8911 4c3d
00000010: ff64 653d 5cea 083c a394 06bd 5fbb a03d
00000020: cbe5 07bc 379f 6fbd 68f1 8abb 494c 2f3c
00000030: 5ff3 353c 3f59 1bbd 255e 39bd 8737 a33d
00000040: 520a 223d 697e 06bb 9879 52bc 2967 6b3d
00000050: 64d5 013c 5503 573c ad1c 493d 0fa3 ba3c
00000060: d148 b2bc 58df 82bb c103 8a3d bde2 593c
00000070: 0027 fe3c 6718 a5bc 887e 54bd 2a0c cd3b
00000080: a999 f6ba b1d8 5b3c 8093 1c3d 8f98 5ebd
00000090: 4876 743d fabd 0e3c fdde 5b3c 5962 ab3d
000000a0: c5e4 0f3d c09d 2dbb 7c9d f4bc 78e8 983d
000000b0: 9e90 2c3d 0761 6e3c b3d3 393c b0d5 cb3c
000000c0: f04b 19bc 433e 29bd 92bc b93d 310d cfbc
000000d0: 661f a43c 7aaa 773d 24ce 6cb8 21af 823d
000000e0: e2cf d73b 7ff3 373b afcd e93d 326d 7e3d
000000f0: 4350 4bbd 4f28 24bc 6c91 03bd f6cc 66bd
00000100: 87a5 e03c 734b bd3c a6ae 5dbd d63f b93d
00000110: 7f10 bd3c 3090 783c 056d 76bd df74 343b
00000120: 973e 21bc b8b2 ebb6 59e1 75bc e6b5 b53d
00000130: c129 31bd 60c0 143d dc8e 4ebd d584 6e3d
00000140: 2cdb 4e3d 8db2 2b3d 7a8f 233d d858 9bbb
00000150: 92aa 98bc e11f 8bbc ef80 a53d 88b1 e83b
00000160: 045e 7ebd e41e b83b fde0 5a3d 5023 b13c
00000170: 4e2d 573d ce77 4e3d 363d 01bb c532 c63c
00000180: 2415 283d 6383 fe3c 4c12 b43d 67ad 833b
00000190: e2f9 c2bc aa93 b43d 7e31 b93d 917b 7cbb
000001a0: 3665 a2bb ed29 653d 42ba 8b3d 99a8 633d
000001b0: d7df 793b e924 a53d 23f6 0e3d 38e4 b13d
000001c0: 90a2 58bc f3c1 673d b1d8 053e 6a0c 18bd
000001d0: 1c9f 7cbc b1dc 033d 3001 a93c ba39 033d
000001e0: a5eb 8dbc ec40 31bd e581 933b 54e2 5a3d
000001f0: d4b6 c13c b4ef d23d cb6f 62bb 2743 02bd
-0.0117995385 0.057033777 0.04778835 0.04982141 0.05600452 0.008356657 -0.032856595 0.07848238
-0.008294533 -0.05850145 -0.0042402036 0.01069934 0.0111053875 -0.03792691 -0.0452558 0.079695754
0.039560623 -0.0020522124 -0.012846373 0.057471428 0.007924411 0.013123353 0.049099613 0.02278283
-0.021763237 -0.00399391 0.06738997 0.0132986875 0.031024456 -0.020153238 -0.051878482 0.0062575536
-0.0018814105 0.0134183625 0.038226604 -0.05434471 0.059683114 0.008712286 0.013419864 0.08368368
0.03513028 -0.0026491731 -0.02986025 0.07466215 0.042130105 0.0145495 0.011341977 0.024882168
-0.009356484 -0.041319143 0.0906917 -0.025274845 0.020034503 0.060465313 -5.6458768e-05 0.063810594
0.006586061 0.002806872 0.11416184 0.062115856 -0.04963709 -0.010019376 -0.032121107 -0.05634781
0.02742268 0.023107266 -0.054121636 0.09045379 0.023079155 0.015171096 -0.060162563 0.002753548
-0.009841583 -7.0243514e-06 -0.01500734 0.08872585 -0.04325271 0.036316276 -0.05042921 0.058232147
0.050501987 0.041918326 0.03993175 -0.0047408156 -0.018636022 -0.016982974 0.08081233 0.0071012415
-0.06210138 0.005618917 0.05343722 0.021623284 0.05253344 0.050407223 -0.0019720322 0.02419413
0.041035786 0.03106851 0.08792552 0.004018474 -0.023800794 0.08817227 0.09042643 -0.00385258
-0.004955913 0.055948187 0.06822635 0.05558071 0.0038127804 0.08063681 0.034902703 0.086861074
-0.013222352 0.05658145 0.13070942 -0.037121214 -0.015418794 0.03219289 0.020630449 0.032037474
-0.017324278 -0.043274805 0.0045015686 0.0534385 0.02364675 0.10299626 -0.0034551497 -0.031802323

Linear1.4.weight f4 [64, 128]
00000000: 3e8a f03c 534a fa3d 1d22 043e ab3f 8d3d
00000010: 051e fc3c 1479 9d3c d7c9 99bb ecc4 b93d
00000020: 2323 ff3c a7cc 833d 2e2c c23d 5678 c63d
00000030: 9b2c 353d 8c2d 863d 6e9a 1c3d 0890 813d
00000040: 8f89 833d 865c 23bc e411 15bc a426 0a3e
00000050: cc0f a1bd 7fd3 1c3e f681 7839 d10c c73d
00000060: 0ae4 923d c364 193e cdf4 ca3c 5c87 b73d
00000070: 5851 9cbc 7c3f 9bbd 7232 363d 0112 6cbd
00000080: ac30 d43d e8ae 64bd 90b8 05bd 3ca1 d93c
00000090: 359f 6ebd 9afb 253e 0760 94bd f223 d33d
000000a0: 5329 8f3d 0336 1b3e 41c5 04bd 6867 c23d
000000b0: 7ed3 a13a 01c3 dd3c 6fc4 613c e5a4 203e
000000c0: baae 313d ffe6 9dbd 7c2c 103d 3eb9 133d
000000d0: 97c2 b33d e0be ac3d 4e67 ea3c ec1a d23d
000000e0: 1dd0 5cba 2073 113e 1a7a 0e3c e0dc 1e3b
000000f0: 4781 27bd e10f a5bd 1002 143e 95c2 373d
00000100: 2077 433d aa48 a43d 4cf5 e43c 109c 823d
00000110: 6980 573d b2f3 7a3d 409a 44bb ed09 59bc
00000120: d170 0f3e 21a2 893d fbc2 513d 7418 0c3e
00000130: 647c 01bd a2fc 513d 65b7 8b3d 945f fe3d
00000140: 6db8 ca3c 4c06 f8bc 10c6 283b cde6 80bc
00000150: 4834 a3bd 82dc a43d dbdd 433d 4c5d 6f3d
00000160: 93c0 803d d42e 9dbd b4c4 7d3d 381d c03d
00000170: e4d0 a83d 3d74 1cbd 356b 8b3d 588f 053d
00000180: baca 963d fd3e 263e ce45 a93d d236 b639
00000190: 73ed d43d 0ce2 ed3d 1fcc 473d 3721 be3a
000001a0: 47f1 a53d f568 d1bb b98b 763d 789b 833c
000001b0: a06f 73bb d9c9 253e b6a0 c43d 6fb1 c53a
000001c0: ee65 5c3d ff83 cf3d aea5 583d 5651 d63d
000001d0: 940c 74bc e2f5 e83d 8954 b63d f5f1 9c3d
000001e0: 6701 cf3c e0e1 a33b e289 8b3d 5260 5e3d
000001f0: d830 d03c 4025 d43d 7f55 963d 68af 023d
00000200: aa5f ad3d 2c71 943d eef1 633d 88f9 153d
00000210: 7a3a b8bc 6854 5e3d f113 f93c 0dff 7bbc
00000220: f949 6cbc 7943 283d c7f9 9ebd fa80 193d
00000230: ad1e 833c adbf c2bd a534 493d bb49 33bd
00000240: 1e42 2f3d f902 9e3c 939e 423d 6c24 ab3b
00000250: e162 a1bc f4b4 1abd 6657 68bd cedb 9b3d
00000260: 52a9 c13d 41e6 4a3b 2fb6 0b3d 9901 2bbc
00000270: 5840 84bc 0ab5 26bd 0c9b 84bc cf2a 9dbc
00000280: 3559 7b3d 674d 92bd 4c50 d8bc e09d 84bc
00000290: 115f deba b2ad 243d 1883 7ebd 0a67 8fbd
000002a0: 2101 99bd 3c8d a83c d262 7d3d 282c 883d
000002b0: 379c e7ba 4659 013c 577b 113d 23bb a83d
000002c0: 3066 95bb e759 acbb 59b0 60ba 2163 8bbd
000002d0: 3c7f 543d 8499 0c3c 6388 19bd 3746 88bd
000002e0: 1ebe 3ebd 9a99 bebd a77c 9cbd 56a3 81bd
000002f0: 66ab 1fbd f67f 8d3d a234 6dbd d5b2 84bd
00000300: daf8 1cbd 73f6 673c 2717 42bd 0102 e13c
00000310: e98c 4d3c 9232 093d c246 1ebc 1310 80bd
00000320: a840 febc 23b5 03bd a2ff bebd b6d3 03bd
00000330: 132a 7abc c2f9 1b3d a56b 6fbd e619 2ebc
00000340: b276 7dbc 3742 4cbd 1632 0fbd 15e6 923c
00000350: b39c 41bd e532 81bd ac5e 1cbc 3740 20bc
00000360: e8b8 15bc 794c 8abd 7427 863c 80cb 1e3d
00000370: 01ab a2bc 6e53 34bd 3c07 67bd 7fb0 11bd
00000380: 777d 943d 3e17 56bb 0f1f c83c efda 04bc
00000390: afac 58bd 888e c83c 1327 b1bd d127 11bd
000003a0: 4567 e1bd e873 903d a87c b63d 6239 693d
000003b0: 232a 6a3c b213 fc3a 145f 793c 9d45 a2bd
000003c0: 499a 32bd 1b98 8bbd c1ee 453d 520c b8bd
000003d0: 3063 8d3d 70cc 25bd aaa9 ef3c e909 9b3d
000003e0: 2c41 99bd c07b e23b 9fe1 b5bd 82b6 adbb
000003f0: 0822 d63c 2227 92bd b4c6 613a c84c afbc
0.029362794 0.122212075 0.12903638 0.06896909 0.030776033 0.019222774 -0.0046932506 0.09070763
0.031144684 0.06435519 0.09481083 0.09690921 0.044231992 0.06551656 0.038233213 0.063263
0.064227216 -0.00997079 -0.009098504 0.13491303 -0.07864341 0.15315054 0.00023699537 0.097192414
0.07172401 0.14979844 0.024774933 0.089613646 -0.019081756 -0.07580468 0.044481702 -0.057634357
0.10360846 -0.055830866 -0.032646716 0.02656614 -0.0582573 0.1620926 -0.07244878 0.103095904
0.06990304 0.15157323 -0.03241468 0.094923794 0.0012346355 0.027070524 0.013779744 0.15687902
0.043379523 -0.07710075 0.035198674 0.036065333 0.087773494 0.08434844 0.028613713 0.10259041
-0.0008423345 0.14204073 0.0086961035 0.0024240538 -0.040894773 -0.08059669 0.14453912 0.044863302
0.04772103 0.08021672 0.027948998 0.06377423 0.052612696 0.061267562 -0.0029999167 -0.013246995
0.1400788 0.06720377 0.05121134 0.13681203 -0.03161277 0.05126632 0.06822089 0.12420574
0.024746144 -0.03027644 0.002575282 -0.015735054 -0.07968956 0.08049871 0.047819 0.058438584
0.062867306 -0.076749474 0.06195517 0.09380573 0.08242968 -0.03819679 0.068075575 0.032607406
0.07362886 0.16234966 0.08265267 0.0003475459 0.10396852 0.11615381 0.04877865 0.0014505748
0.081026606 -0.0063906857 0.060191844 0.016065344 -0.003714539 0.1619028 0.09600966 0.0015082787
0.053808145 0.10132598 0.05289238 0.10464732 -0.014895577 0.113750234 0.089028426 0.07663337
0.025269223 0.0050012916 0.068134084 0.054291077 0.025413916 0.103586674 0.07340526 0.03190556
0.08465512 0.07248148 0.055650644 0.036614925 -0.022488821 0.054279715 0.030405017 -0.015380633
-0.014421933 0.041079972 -0.07762485 0.037476517 0.016005838 -0.095092155 0.04912247 -0.043771487
0.042787664 0.019288527 0.04751451 0.0052228477 -0.01970047 -0.037770227 -0.056723975 0.07610284
0.094561234 0.0030959996 0.03410929 -0.010437393 -0.016143963 -0.040699996 -0.016187213 -0.019185452
0.06136437 -0.071436696 -0.026405476 -0.016188562 -0.0016965588 0.04020471 -0.06213674 -0.07002075
-0.074709184 0.020575158 0.06186182 0.06649047 -0.0017670457 0.00789482 0.035518017 0.082388185
-0.004559301 -0.0052597406 -0.00085712 -0.06806017 0.051879153 0.008581523 -0.037483584 -0.066540174
-0.04656803 -0.09306641 -0.07640963 -0.06329982 -0.038981818 0.06909172 -0.057911523 -0.06479422
-0.03832326 0.014157879 -0.04738536 0.027466776 0.012545803 0.033495493 -0.009660425 -0.06253066
-0.03103669 -0.032155167 -0.09326102 -0.032184325 -0.01526882 0.038079984 -0.058452267 -0.010626292
-0.015470194 -0.049867835 -0.034959875 0.017931977 -0.04726858 -0.063085355 -0.009544056 -0.009780935
-0.009138323 -0.06752867 0.016376235 0.03876829 -0.019856932 -0.044024877 -0.056403384 -0.03556871
0.07250493 -0.0032667662 0.024428872 -0.008108838 -0.05289906 0.024482027 -0.08650031 -0.035438363
-0.11006025 0.07053357 0.08910495 0.05693949 0.014292273 0.0019231944 0.015220422 -0.07923434
-0.04360417 -0.06816121 0.048323397 -0.08986725 0.06903684 -0.04047817 0.029255707 0.075702496
-0.07483134 0.006911725 -0.088809244 -0.0053012976 0.026139274 -0.0713637 0.0008612678 -0.021398917

Linear1.4.bias f4 [64]
00000000: 710e 3d3d 82d8 913d 0642 883d e282 a4bd
00000010: 3d14 df3b 4276 243d 7bfc f0bc 1aee 60bd
00000020: 7a51 d53d 7d55 843d 046c 5abd 4200 adbd
00000030: 47f0 653b b9d6 b43d 54d3 89bd 7688 bcbc
00000040: 8ebd 433d e497 b2bd 2934 783d 73d1 4bbd
00000050: af27 c93d 1c68 bc3c c267 4cbd fb82 9cbd
00000060: 32ee a1bc 5df6 953c 8837 6b3c 8b94 053d
00000070: 9888 f73c a463 aa3d 5829 86bd 80f3 a83c
00000080: 1a31 8cbc c58b 4bbd 7c78 22bd b649 a4bd
00000090: e1cc 743d f6c4 53bd 37d9 b63d 4159 9fbd
000000a0: 0975 eabc ab6c a0bc fc29 e43d 0a8f 043e
000000b0: 3b2a ec3d b94a 753d 82a7 983c a428 4fbd
000000c0: 3ae7 e0bc 5601 b43c 81d7 bd3d a31d 113c
000000d0: 9ee1 013d 004c 37bd a8b3 de3c ca84 e33d
000000e0: a049 bdbc b40f 5abd 83f6 843d 393b 00bd
000000f0: b496 ea3c 7393 173c 254a 04bd 614e b43d
0.04615635 0.07121374 0.06653218 -0.080327764 0.0068078325 0.040151842 -0.029417267 -0.05491457
0.10415931 0.06461618 -0.053325668 -0.08447315 0.0035085843 0.088300176 -0.06729761 -0.023014288
0.047788195 -0.08720377 0.06059662 -0.049760293 0.09822022 0.022998862 -0.04990364 -0.0764217
-0.0197669 0.018305952 0.014356501 0.032612365 0.0302165 0.08319786 -0.065508544 0.020623922
-0.017113257 -0.04969384 -0.039665684 -0.08021872 0.0597657 -0.05170151 0.08928149 -0.07780696
-0.02862026 -0.019583067 0.111408204 0.1294519 0.11531492 0.059885714 0.018634561 -0.050575867
-0.027454007 0.021973293 0.0926962 0.008857164 0.031709306 -0.044750214 0.027185276 0.11109312
-0.023106396 -0.053237632 0.06492331 -0.03130648 0.028636314 0.009251463 -0.032297272 0.08804012

V.weight f4 [1, 64]
00000000: 16b3 4dbe 1ebc be3d bfe0 cb3d c6a2 6fbc
00000010: 5ae5 6d3d a051 3a3d 5f9f 13bd 83c0 c53d
00000020: c1aa 113e e150 c63d af78 f9bd 3064 23bd
00000030: 4cf3 ab3d 08c3 24bd d4c5 413d 3e93 78ba
00000040: 5e28 d2bc 95ec 9ebd 3f19 083e 36e9 a83d
00000050: 4a7d 083e 6ca1 e3bc 5603 40bd 2182 95bd
00000060: c205 103e e6dd 953c 66b1 f5bd 89ed c5bd
00000070: 5cf3 793d 45c1 03be c31a f9bd b94b 3fbe
00000080: 1ec9 a63c d527 02bc 14d3 c2bd e889 a8bd
00000090: 30b8 dc3d 5402 cfbc 432b 0a3e 8038 fbbb
000000a0: 9623 953d c0fd f4bd 503f debc e2f9 fa3d
000000b0: 0893 4fbe 0ec0 b73d 0c42 1d3e 0f81 003e
000000c0: 3afa 093e 6aab 08bd 6554 fd3d abf7 2a3d
000000d0: 004c 04bc 7f5e 5cbd 58e6 d4bd da60 053e
000000e0: aae8 c6bc ae68 e9bd da9d 113e 06ea 9a3d
000000f0: f024 e63d 89f1 4f3c 94e8 7f3d 9aa1 cd3d
-0.20087847 0.09313224 0.09954976 -0.014626211 0.058080055 0.045488 -0.03604066 0.09655859
0.14225294 0.09683395 -0.12181222 -0.039890468 0.083960146 -0.04022506 0.047307804 -0.000948239
-0.025654014 -0.07759968 0.1329088 0.082476065 0.13329044 -0.027786933 -0.04687818 -0.07300211
0.14064696 0.018294286 -0.11996727 -0.09664447 0.0610231 -0.12866695 -0.121633075 -0.1868123
0.020359572 -0.007944067 -0.09512916 -0.082294285 0.107773185 -0.025269665 0.13493066 -0.0076666474
0.07282178 -0.119624615 -0.0271298 0.122546926 -0.20270932 0.089721784 0.15357226 0.12549232
0.1347436 -0.0333666 0.123696126 0.0417401 -0.00807476 -0.053801056 -0.10395497 0.13025227
-0.024280865 -0.11396919 0.14220372 0.07564168 0.11237514 0.012691864 0.062477663 0.10040589

A.weight f4 [7, 64]
00000000: 395c 233d 36c5 83bd 07b8 e9bc bec6 f3bd
00000010: 79d0 e7bc 2857 493d b121 f53d 88f5 11be
00000020: 54f5 c23c 416e 0ebe 2563 f9bd 8646 843d
00000030: 4375 2c3d 1003 fe3c f629 f03d 7dd8 063d
00000040: 090a 9abd 0d00 dfbd 9205 4a3b a97b 5a3d
00000050: 1e58 393a 5703 a63d fa1c eabd 5bb9 bb3d
00000060: 132f 4f3d 9537 f2bd c0f4 f33c 7632 9d3d
00000070: 6019 b83b d0dc 353d 5bcf bcbd 4dfe 893c
00000080: 1a93 86bd 3dfe b23c 8838 aebd b0a6 6a3d
00000090: 81b7 c93d 9909 923d c387 f2bd 0e41 fd3d
000000a0: 3aa1 963d 65d6 b2bc d786 44be f0fb ecbd
000000b0: 9526 13bd 2ae8 31bd 717a 193c ece1 203d
000000c0: c6a6 33bd 40c1 fdbd 1daa ac3d b69a 043e
000000d0: 3a91 9dbd 32ef 20bd ac72 1f3d 4a5c eebd
000000e0: 1372 98bb be1a 82bd c30c 833d 442c 4bbd
000000f0: 7a1d f3bd da63 67bc c9b6 193d b4bb 06bd
00000100: dd37 22bc 2ade 4abd 6b97 383c 71b4 babc
00000110: 08c7 52bd 0eae 983d 3b47 aebd 7fa3 8b3d
00000120: 5a42 c83c f24d 26bc 497a 49bc 9c23 d5bd
00000130: 919d a53d a4ef d8bd ec48 08bb f920 b13d
00000140: 4926 933d 7717 cbbd dce8 1fbd daa3 c93d
00000150: e36d 48bd ad9a 25bd b26b b4bd 2f2e 88bd
00000160: eb93 e8bd 9dd0 9ebd 9808 3fbd 084e 26bd
00000170: 669e d93d 6c1c 89bd c8ec a1bd 4d4b b5bd
00000180: e4de 2f3d 538b 32bd 79e4 8d3d c0ff 8c3b
00000190: 564c ebbc b4e3 8c3c 4e0d 07be a0ba 303c
000001a0: 3d09 633d db6f 8fbc 133c 3a3c a749 3c3d
000001b0: dad1 0a3d c29f c23d fbb4 663d 1e0c 19bc
000001c0: 4f45 70bd a23a 19bc 3655 df3d 7eff 7f3d
000001d0: f433 813d 69d6 423c 9686 f13d 512b b7bd
000001e0: 3bd2 61bc 88b5 433d 25b4 393d 305e 2a3c
000001f0: 0abf b43d ecc3 dbbd b783 043e bc6b 823d
00000200: 0550 95bc 4495 6e3c 186d b9bd e7e7 9dbd
00000210: 7a5c 57bd e08a 6bbd 5cea 733c 0c39 7f3c
00000220: 0e20 24bd 1c0f f23c bfb4 c9bd dc54 99bd
00000230: df38 903d caa4 d83d b77c e93c fd79 b4bd
00000240: 8d9c 9cbd 7df8 91bd ff26 28bc 3a12 9d3d
00000250: e8fb 853d 0341 5bbd 61a3 413d e5fb bc3d
00000260: 4dc3 a1bd 1f45 263d ce09 8b3d 6d50 e4bd
00000270: dadc bd3d f3ad b63d f48e a73c 03de 163c
00000280: bbea 0bbe f515 39bd 1c73 bf3d 0001 f53a
00000290: fd11 0fbe aef9 bd3a 149b 693d b855 a63c
000002a0: 04b8 d43d dede a73b e65e d23c 1cb9 a93d
000002b0: aa7b 7abd 9ebc 303d e112 c13d a033 973c
000002c0: e98c 7b3c b35b bb3d 7ed9 c0bc 9f40 163d
000002d0: e410 153d b529 e4bd 5084 0ebd 0aac a2bd
000002e0: 268a bf3d 84e5 9bbd aa8e 3ebd 149f 1d3d
000002f0: ccaf 7fbd 41df cabd 7443 a03c 50e8 3abd
00000300: 4994 7c3a 26a3 89bd b144 afbc e637 9cbd
00000310: 4f68 df3d d23a d1bd d6a1 5f3d c393 873c
00000320: fa29 93bd 43b8 ddbd c8c3 6abd dc62 9fbd
00000330: ab90 26bb a45c 72bd 3ea5 a43d 0d40 2bbd
00000340: 4e13 c23d a4b6 593d 24f3 08be e2dd 483d
00000350: b275 be3d c9ac 2f3d 603f b63d 3049 243d
00000360: aab6 53bd 29a1 e8bd 0488 20bd ac92 af3c
00000370: b816 3cbd 96e7 91bd b818 a2bd bcd4 dcbd
00000380: c3b1 da3b d6b1 4fbe 8247 fdbd 00e1 d33a
00000390: 1acd c9bd 24d6 f4bc 7d7c 5ebc c044 00bd
000003a0: fa33 db3d 01e6 1cbc dab2 133d 63bb 6d3d
000003b0: ae1f b43c 2b9b b3bd e9bb 7c3d ee5b 77bd
000003c0: da47 54bd 6da7 99bd 9303 0f3d 9a2f 8fbd
000003d0: 48ff e93c a592 a83d 4ecf 9ebd cda4 8abd
000003e0: e860 83bd f01d 46bc 65ba fa3d bc74 09bd
000003f0: 94bb 49bd b87f 5d3d 9acb 99bc 845c bfbd
0.039882872 -0.064340994 -0.028530134 -0.119031414 -0.02829765 0.049155384 0.11969317 -0.14253819
0.023798622 -0.13909246 -0.121771134 0.06458764 0.042104017 0.03100732 0.117267534 0.032921303
-0.07521445 -0.108886816 0.0030826074 0.053340588 0.00070703204 0.08106106 -0.11431308 0.09166213
0.050582003 -0.11827008 0.029779792 0.0767564 0.0056182593 0.044400036 -0.092192374 0.016844893
-0.06571026 0.021849746 -0.08506876 0.05728787 0.09849454 0.07130737 -0.11842301 0.12365924
0.0735497 -0.021830747 -0.19192062 -0.11571491 -0.035925467 -0.0434343 0.009367571 0.039277956
-0.04386022 -0.12390375 0.08430884 0.12949643 -0.076937154 -0.039290614 0.03892772 -0.116386965
-0.0046522706 -0.06352757 0.063989185 -0.049602762 -0.118708566 -0.014122928 0.037527833 -0.03289385
-0.009901014 -0.04952828 0.01126657 -0.02279112 -0.051459342 0.07455073 -0.0850968 0.06818294
0.024445701 -0.01015042 -0.012297221 -0.104071826 0.08086694 -0.10592583 -0.0020795418 0.08648867
0.07185037 -0.09916585 -0.03904043 0.09845705 -0.04893292 -0.040430713 -0.08809604 -0.06649434
-0.11356338 -0.077546336 -0.046639055 -0.04060176 0.10625915 -0.06694874 -0.079064906 -0.08852253
0.042937174 -0.0435899 0.06928343 0.0043029487 -0.028722923 0.017198421 -0.13188669 0.010786682
0.055428732 -0.017509392 0.011366862 0.045968678 0.033891536 0.09503128 0.05632494 -0.009341268
-0.058659848 -0.009352358 0.109049246 0.062499516 0.063087374 0.01189194 0.11793248 -0.08943809
-0.013783033 0.047780544 0.045337815 0.010398433 0.088255 -0.107307285 0.1294087 0.06368205
-0.018226633 0.014561955 -0.09054011 -0.077102475 -0.052578427 -0.05750549 0.014887419 0.015577566
-0.040069632 0.02954822 -0.09848928 -0.07486889 0.07042097 0.10578306 0.028501851 -0.0881233
-0.07647047 -0.071274735 -0.010263204 0.07669492 0.06542188 -0.053528797 0.04727495 0.092277326
-0.07898579 0.040593263 0.067889795 -0.111481525 0.0927064 0.08919897 0.020453908 0.009208205
-0.13663761 -0.045186955 0.09348127 0.0018692315 -0.13971706 0.0014493966 0.05703266 0.020304546
0.10386661 0.0051230034 0.025680017 0.0828726 -0.06115309 0.04314863 0.09427429 0.018457234
0.01535342 0.091483496 -0.023541208 0.03668272 0.03639306 -0.111407675 -0.03479415 -0.0794297
0.093525216 -0.07612136 -0.046522774 0.038481787 -0.062423512 -0.099058636 0.019563414 -0.045631707
0.00096351333 -0.06720571 -0.02139506 -0.07627849 0.10908567 -0.10216297 0.0545977 0.01654995
-0.07185741 -0.10826161 -0.057315618 -0.07782528 -0.0025415819 -0.05917038 0.0803933 -0.04180913
0.09476338 0.053152695 -0.13374001 0.04903973 0.09299792 0.04288939 0.088988066 0.04010886
-0.051687874 -0.11358864 -0.039192215 0.021432243 -0.045920104 -0.0712425 -0.07914871 -0.10782763
0.006674023 -0.20282683 -0.12367155 0.0016165078 -0.09853573 -0.029887266 -0.013579485 -0.031315565
0.10703273 -0.009576322 0.036059238 0.058040034 0.021987762 -0.0876983 0.061702643 -0.060390405
-0.051826335 -0.07502637 0.034915518 -0.06991501 0.02856411 0.08231095 -0.07754384 -0.067697145
-0.06414968 -0.012092099 0.12242583 -0.033558592 -0.049251154 0.05407688 -0.018773843 -0.09343818

A.bias f4 [7]
00000000: 63af 1cbd ec62 d7bd 4829 eebd 34a5 813b
00000010: db9c 353d 2a87 dfbd b08c 753d
-0.0382532 -0.10516915 -0.116289675 0.0039564613 0.044339042 -0.109144524 0.059948623
